model/model.pth (torch, 17216 bytes, 4 tensors)

linear1.weight f4 [256, 11]
000000 98 47 f3 3e 2c 4f a9 3d 39 cf 8d 3e a3 fd c4 bc
       0.4751556 0.08267054 0.2769716 -0.024046725
000010 ac f7 36 be 45 e6 2a be 85 43 51 be 09 50 ad 3d
       -0.17867917 -0.16689403 -0.20435913 0.08462531
000020 19 2e 2f 3e 55 3d 9d 3e 44 63 8b 3e 27 d7 29 be
       0.17107429 0.30710855 0.2722417 -0.1658598
000030 bc 34 0f 3f ca 34 1d ba 60 e7 41 3d e7 99 44 3e
       0.5593984 -0.0005996941 0.047339797 0.19199334
000040 72 a5 a3 be 59 91 15 be 5f f8 b8 3e fb 6e 19 3d
       -0.31962162 -0.14606227 0.36126992 0.037459355
000050 f6 78 6c 3e 9c c9 06 3e 67 ae 7d 3e d5 d1 85 3d
       0.23093018 0.13162845 0.2477356 0.06534163
000060 91 c9 bb 3e 09 22 9f 3e 75 20 c1 3d 09 31 e4 3e
       0.3667722 0.31080654 0.09430019 0.4456866
000070 5b d6 1d be 7f 4e 2d be 80 56 43 3e 45 25 67 be
       -0.15413801 -0.16924475 0.19075966 -0.22572811
000080 77 58 09 3f 1a fe d4 3e 6c a0 5c 3e 70 96 6e be
       0.5365061 0.41600114 0.21545571 -0.23299575
000090 0c bf b9 3d bd 33 e0 be c8 62 e8 3d 69 65 cc 3e
       0.090696424 -0.43789473 0.11346966 0.3992112
0000a0 97 65 01 bd c4 54 22 3e 10 f0 24 3b 44 19 dc be
       -0.031591024 0.15852648 0.0025167502 -0.42988026
0000b0 c6 d6 1f be 01 4a 94 bd ba 27 f7 bd b9 61 f2 3d
       -0.15609273 -0.072406776 -0.12068124 0.11835045
0000c0 1d eb 09 bf b7 b3 1c bf d7 c0 a6 3d 8c eb ce 3e
       -0.5387438 -0.61211723 0.0814225 0.40414083
0000d0 bb 19 99 be 6e 05 0e bf 0e 56 fd be ae 64 9a 3e
       -0.29902443 -0.55477035 -0.49479717 0.30154938
0000e0 14 1b 93 be 17 dd 8d bd b6 6a ce bd 76 af 1d be
       -0.28731596 -0.06926935 -0.10078947 -0.15398964
0000f0 42 ce f9 3d fc 87 44 bc 4e 7a 49 3c cd b9 3c be
       0.12197544 -0.011995312 0.012297226 -0.18430252
000100 0c c1 88 be 9e 37 86 be 1b 40 21 3e 22 83 ae 3e
       -0.26709783 -0.26214308 0.1574711 0.3408442
000110 c0 19 7f 3d 62 06 bb be f5 d8 e3 3d 71 b1 7b be
       0.062280416 -0.36528307 0.11125366 -0.24579407
000120 19 bc b3 3e 9d ba 64 3d a9 3d 32 be e0 a9 42 3e
       0.35104445 0.05584203 -0.17406334 0.19010115
000130 42 a5 e4 be 30 d8 95 be c2 07 97 be 41 1a 9b be
       -0.44657332 -0.292665 -0.29498106 -0.30293468
000140 cd 5a 82 be ae 83 ff 3d 56 28 a8 be 69 dc 04 3f
       -0.254599 0.12476288 -0.32843274 0.5189882
000150 30 1c 09 be 6c 3f 12 bf 1e 30 02 bf 4a e0 ce 3e
       -0.13389659 -0.57128024 -0.5085467 0.40405494
000160 8c 8e 2c 3d 6c d2 0e 3f a3 42 a5 be ec c1 99 3d
       0.04212813 0.5578983 -0.32277402 0.07507691
000170 c6 fe 79 be a5 ef 5d be a4 24 30 3d e8 28 09 3d
       -0.24413595 -0.21673448 0.043003693 0.033486277
000180 fb 1d 99 3e 15 b1 52 3e 9d 74 c7 3d 07 3d 91 be
       0.29905686 0.20575364 0.09739039 -0.28366873
000190 e5 c5 ec 3c 7a c8 62 bd be 83 ee be a0 e7 2b bf
       0.028902957 -0.05536697 -0.46584886 -0.67150307
0001a0 2f 00 61 3e 09 08 84 3e 4d cd e6 be a2 d5 f6 be
       0.21972726 0.2578738 -0.45078507 -0.48209864
0001b0 f7 e0 6b 3e 37 7b ed 3e 2d 6b 52 3b d6 a0 a5 3c
       0.23035036 0.46383068 0.0032107339 0.020218294
0001c0 7f c1 97 bc c0 4b a0 3e f2 b1 a8 be 87 1b bd 3e
       -0.018524883 0.31307793 -0.32948261 0.36935064
0001d0 10 ad 1d be e2 46 41 be e2 d4 04 3f 0d 75 4d be
       -0.1539805 -0.18874696 0.51887333 -0.20064183
0001e0 dd 81 b8 3e 88 2f 3b be a9 33 df bd dd 11 53 3e
       0.36036578 -0.1827985 -0.10898525 0.20612283
0001f0 1b ee 1f 3e 9c 47 70 bb 52 53 6a 3d 1a bf fc bd
       0.15618174 -0.0036663776 0.057208367 -0.12341137
000200 9d 95 37 3d cd a1 33 3e fd 4f b7 3e 0f b9 b2 3e
       0.044820417 0.17542191 0.35803214 0.34906814
000210 f6 c1 37 be 68 44 2b be 91 d3 3a 3c a9 4c 0c 3e
       -0.17945084 -0.16725314 0.01140298 0.13701119
000220 5d c0 02 bf 05 b5 fc be a1 10 42 3e 2a a2 3e 3e
       -0.51074773 -0.49356857 0.18951656 0.18616548
000230 18 e6 19 bf 03 20 c5 be 2f 90 07 3e f5 cf b2 be
       -0.6011672 -0.38500986 0.13238595 -0.34924284
000240 74 68 8e be 2f 8c 14 3f cf 97 4e 3e e2 b3 8b be
       -0.27814066 0.58026403 0.20175098 -0.27285677
000250 f7 56 25 3e a5 72 ad 3e 67 39 94 be ad 2e e8 be
       0.16146456 0.3387653 -0.28950045 -0.4534811
000260 ac f6 4f 3e 8a f5 1e bb b9 77 1a bd 28 0f 02 bf
       0.20308942 -0.002425524 -0.037711833 -0.50804377
000270 40 ef 07 3f 8e 91 93 bd 36 38 11 be 80 4b 3e 3e
       0.5309944 -0.07205497 -0.14181599 0.18583488
000280 7e 41 69 be 1c d3 2b be c0 78 3e 3e cf b9 38 3e
       -0.2277889 -0.1677975 0.1860075 0.1803963
000290 2e 74 71 3e b2 cc d1 be 4a 3b 58 3e e5 8f 65 3d
       0.23579475 -0.40976483 0.21116367 0.05604543
0002a0 e2 69 31 bd c6 8c da be 3b 4c ad be 48 48 b9 3d
       -0.04331387 -0.42685527 -0.33847222 0.0904699
0002b0 34 e1 67 be 92 75 b1 3e 21 53 71 3d cd 98 b3 bd
       -0.22644502 0.34660012 0.05891717 -0.08769379
0002c0 4f fb 5a 3e 76 48 fb be 7d 21 4d 3e 18 96 82 bd
       0.21384929 -0.4907872 0.20032306 -0.06376284
0002d0 6e ab b8 3d 64 fc ec bd 73 15 ce be a0 32 1c 3e
       0.090170726 -0.11571577 -0.4025074 0.15253687
0002e0 65 80 b2 be 96 66 36 3d 41 52 8f 3e 42 e9 92 3d
       -0.34863582 0.044531427 0.27992442 0.07173397
0002f0 6e 9b 8a 3e c1 cc 8f be 94 cf 71 3e bf fd 31 3e
       0.27071708 -0.28085902 0.23614341 0.17381953
000300 cf 1d 8d be da 0b 92 3e 5a 0a 99 be b6 38 8e 3e
       -0.27561805 0.28524667 -0.2989071 0.27777642
000310 99 f2 b6 3e 6c 0e 3a be 27 95 7c bc b9 4e 2b be
       0.35731962 -0.18169564 -0.01541642 -0.16729249
000320 bd 27 93 3e 17 9f b3 3e 90 25 dc 3e e4 63 d5 be
       0.28741255 0.35082313 0.42997408 -0.41677773
000330 b8 b4 2d bd 36 06 4a 3e 07 31 26 3e 50 ba fb be
       -0.042408675 0.19728932 0.1622964 -0.49165583
000340 a6 ab fa be 65 cf fb bd 66 c8 fa 3e e7 fe a9 3e
       -0.48959082 -0.12295417 0.48981017 0.33202288
000350 cc e1 68 3e d1 20 30 be 82 0a 3b 3e df 81 32 be
       0.22742385 -0.17200018 0.18265727 -0.17432354
000360 5d 4d 0e 3e cf cf a4 3e 89 60 03 be 56 90 b6 3e
       0.13896699 0.32189795 -0.12829794 0.35656995
000370 6b 10 7e bd 02 de 2b 3e 8e 69 6b bd 9f b7 6e be
       -0.062027376 0.16783908 -0.05747371 -0.23312233
000380 3f d5 02 3d a1 53 a2 be ec 19 36 3e 39 98 8f 3e
       0.03194165 -0.3170443 0.17783326 0.28045824
000390 d2 ec 58 3e a0 43 08 3f 4a 89 85 be 76 22 53 3e
       0.2118409 0.5322819 -0.26081306 0.20618615
0003a0 28 d5 1c 3e ab 66 8d bd 5d d3 17 bd 71 5f f4 3d
       0.15315688 -0.06904348 -0.037066806 0.119322665
0003b0 15 63 0f be cc 1a 7b be 80 73 f3 3d 5e b8 1c 3e
       -0.1400264 -0.24521941 0.11887264 0.15304706
0003c0 96 b4 54 be 8f 70 68 bd 15 3f 0b bf 46 8b 65 be
       -0.20772013 -0.05674797 -0.5439313 -0.2241641
0003d0 21 b0 c2 be c3 1a ba be b1 ce bb 3e 58 4f 35 3e
       -0.38025 -0.36348543 0.3668113 0.17706048
0003e0 7a 7a 15 3e e0 9c ff be 92 52 0b be ce 84 76 3c
       0.14597502 -0.49924374 -0.13605717 0.015046312
0003f0 cd 7e 82 3d c7 16 02 bf e6 b6 5d 3e 11 77 eb be
       0.063718416 -0.50816005 0.21651801 -0.45989278

linear1.bias f4 [256]
000000 9e a6 87 bd 52 8f 92 be 80 25 ac be af 03 0b be
       -0.066235766 -0.2862497 -0.3362236 -0.13575624
000010 74 ab 0e 3e 62 e5 84 be 61 f3 90 3d 3d 8c 49 bd
       0.13932592 -0.25956255 0.07077671 -0.049206007
000020 2d b1 06 be 1a d0 85 3e 1e 9a 72 be 5c 44 f8 bd
       -0.13153525 0.2613533 -0.23691604 -0.121224135
000030 d5 a4 6c 3e 3e e3 a1 3d 3c 61 1a 3d 9b 87 10 bd
       0.23109753 0.07904671 0.037690386 -0.035285573
000040 be 48 7a bd 61 02 32 be b9 b5 8b 3d 1f ac 3c be
       -0.06110453 -0.1738372 0.0682177 -0.18425034
000050 b3 62 5b be 55 e9 7c bd 64 33 29 3f 9d 7e 15 be
       -0.2142437 -0.06174596 0.6609404 -0.1459908
000060 1b 96 0a 3f ef eb f0 be ab a1 b4 be eb 19 58 bd
       0.5413529 -0.47055003 -0.35279593 -0.052759092
000070 65 98 99 be 4f 81 82 bc 9c 78 04 3e 78 31 26 3e
       -0.2999908 -0.0159308 0.12936634 0.16229808
000080 77 8c 60 3e 03 b9 22 be ed 48 ca bd f7 d8 56 be
       0.21928583 -0.15890889 -0.09877191 -0.20981203
000090 07 e3 74 be 52 b4 68 be 32 0e 63 be d5 60 85 bd
       -0.23914729 -0.22725037 -0.22173384 -0.0651261
0000a0 6b 2e 30 3d c5 4a b9 ba 75 f0 1e 3e 67 5f e1 bd
       0.043013018 -0.0014136663 0.15521415 -0.11004525
0000b0 7f ba 4e be ee 43 3d 3d 8a 7a cb be 4c 01 0d be
       -0.2018833 0.04620736 -0.39741927 -0.13770026
0000c0 9c 80 a6 be db 68 33 bd 67 a4 a9 3d 2c c1 98 3d
       -0.32519996 -0.04380117 0.082833104 0.074587196
0000d0 d2 4b 49 bd 41 f3 88 bd c7 7d cb bd 4e 4c 1f be
       -0.049144574 -0.06687022 -0.099360995 -0.15556452
0000e0 fb b8 18 be 5a 00 2c be ef d7 a5 3d b7 48 cd 3e
       -0.14914314 -0.16797009 0.08097827 0.4009454
0000f0 41 36 44 bd e6 0c 3c be 2d 94 3a 3d f6 38 76 be
       -0.047903303 -0.18364295 0.045551468 -0.24045166
000100 e5 72 d1 be 72 6f 10 3b c5 b5 79 3b c2 52 c5 3c
       -0.4090797 0.0022039083 0.0038102728 0.024087314
000110 32 8e 8c be 75 51 80 bd f5 d4 83 be 9b 39 1a be
       -0.27452236 -0.06265537 -0.2574841 -0.15061037
000120 4a cb 7c bd 92 f1 18 3f 92 14 cb 3e 27 79 2e 3e
       -0.06171731 0.5974361 0.3966413 0.17038403
000130 5a 75 b7 be 9d c8 72 be 04 ca 2d be 4a b8 dc bd
       -0.3583172 -0.2370934 -0.16971594 -0.10777338
000140 4a 9c aa 3d c6 43 21 be 53 5b 2e 3d 86 12 1e be
       0.08330591 -0.1574851 0.042567562 -0.15436754
000150 6a 81 25 be ab b0 94 bd 60 4d 39 3c 25 17 f5 3d
       -0.16162649 -0.07260259 0.011309952 0.11967305
000160 59 60 94 bd 5d 0a e5 bd 1d a6 08 be 0c 80 1e 3e
       -0.07244939 -0.11183617 -0.13344617 0.15478534
000170 82 6b c2 be e8 f1 14 be 6d 6b 2c 3e 51 b6 0d 3f
       -0.37972647 -0.14545405 0.16837855 0.5535632
000180 d9 3c fd bd 67 0f fe 3d 60 54 96 3c e6 68 58 be
       -0.123651214 0.124052815 0.01835078 -0.21133766
000190 1c 5f 81 3d 01 c2 5d be c9 18 42 3d 1f 6e ad 3c
       0.06316969 -0.21656038 0.04738692 0.021170674
0001a0 d2 d2 81 3e 49 e2 ea 3d 13 34 32 bd 84 62 33 bd
       0.25356156 0.11468942 -0.043506693 -0.043795124
0001b0 13 47 0f be 85 29 eb bc 76 bc e2 3d fa 52 30 be
       -0.13991956 -0.028706321 0.11071102 -0.17219153
0001c0 b3 aa 4e bd 30 c5 3d be bc cb 96 3d 4c 35 9f be
       -0.05045576 -0.18532252 0.07363078 -0.3109535
0001d0 2a 22 09 3e ed 50 55 be 57 61 c6 3e 6e 23 e6 bd
       0.13391939 -0.20831652 0.3874614 -0.112372264
0001e0 00 33 a3 be 99 8a c1 3e 07 9e 3d be ff 59 5c 3f
       -0.31874847 0.37801054 -0.18517314 0.86074823
0001f0 dc 26 3a 3d 23 51 b0 3d 47 96 89 be 3f 1e 9b 3e
       0.045447215 0.086092256 -0.26872465 0.30296513
000200 a1 82 b7 be ca b5 12 3d 6f c6 03 ba 0a 26 0b be
       -0.3584185 0.0358179 -0.00050268223 -0.1358873
000210 41 58 90 be 5d 73 84 bd ff 6a 6b be 52 69 90 3c
       -0.28192332 -0.06467316 -0.22990035 0.017628346
000220 16 23 41 bd 58 af 18 3e 24 b3 ef bd 9d d7 48 3e
       -0.0471526 0.14910638 -0.1170409 0.196135
000230 b6 91 bf bd ff ae a7 be fa 57 40 be 0a 4a 39 be
       -0.09353964 -0.327507 -0.1878356 -0.1809465
000240 cd 56 6a be a8 6a af bd af 63 82 3d d4 0d a5 be
       -0.22884674 -0.08565265 0.063666694 -0.32237113
000250 56 f4 d4 bd 29 e0 1b bc 14 3a eb 3e df 28 8e 3c
       -0.10398166 -0.009513893 0.45942748 0.017353473
000260 45 23 57 3d ba bf 8c 3d c0 0b e0 36 2a 12 71 3e
       0.05252387 0.068725064 6.677088e-06 0.23542085
000270 12 bf 8a be 75 f3 8a be 51 86 37 bb a1 d7 28 be
       -0.270989 -0.27138868 -0.0028003643 -0.16488506
000280 e6 40 b8 bd 5e 09 a7 bd c5 b3 8c be a1 e1 43 be
       -0.089967534 -0.081560835 -0.27480903 -0.1912904
000290 57 ab 7e be 2d fe 1e 3d ee 48 94 be 70 69 b1 be
       -0.24870048 0.03881662 -0.2896189 -0.34650755
0002a0 10 14 b7 be 3f 98 07 3f 51 b5 12 3d 80 8f 67 3d
       -0.35757494 0.52966684 0.035817448 0.056533337
0002b0 db db 11 3e 2f 60 de 3e 20 8a 74 bc 90 fa ff 3e
       0.14244024 0.43432757 -0.01492551 0.49995852
0002c0 88 00 fa bd c0 4c 51 3c da b0 ec be 31 c6 99 3d
       -0.122071326 0.012774646 -0.46228677 0.07508505
0002d0 bb 7f 72 bd d6 dc 8a bd a1 dd 5f 3d f0 e2 ad bd
       -0.059203845 -0.06780402 0.05465472 -0.084905505
0002e0 4f ad c3 3d 13 b6 21 3e 6f ba 04 be d1 5d b8 bc
       0.0955454 0.15792112 -0.12961744 -0.022505673
0002f0 2d 80 cc be 06 5a 84 be e3 cf 87 be 35 dd 3a be
       -0.3994154 -0.25849932 -0.26525792 -0.18248446
000300 35 a1 19 be 26 c9 f0 3e ae 5b c0 be c7 bf a7 be
       -0.15002902 0.47028464 -0.37569946 -0.32763502
000310 bf c0 b2 3d 4e 82 8a be 37 08 94 be 86 9b 0b be
       0.0872817 -0.2705254 -0.28912517 -0.13633546
000320 04 43 51 3d f5 13 52 3e 32 81 23 3e d3 84 18 be
       0.0510893 0.20515426 0.15967253 -0.14894418
000330 e1 33 7b be 8c 47 22 3d 74 21 8e bd f6 0c c6 3d
       -0.24531509 0.039619014 -0.069399744 0.09670441
000340 79 4c 05 be ee f3 da 3c cf 82 4f be 5a b1 65 3e
       -0.13017453 0.026727643 -0.20264743 0.22430936
000350 39 65 be bd 21 40 65 3e 11 07 3f be 68 17 61 bc
       -0.092966504 0.22387744 -0.1865504 -0.013738491
000360 f6 87 27 bc 46 ab c3 be 77 61 ab 3e 3f 81 19 3e
       -0.010225287 -0.3821661 0.33472797 0.1499071
000370 7d 8e 74 be a1 e9 12 3e 49 2c 20 3d 7b 96 1b 3f
       -0.2388248 0.14346935 0.039104734 0.6077649
000380 bd b1 82 3e bb 6e 6b be 73 1f 21 3e d4 e2 bc 3e
       0.2552623 -0.22991459 0.15734653 0.36891806
000390 c0 25 f8 bd 18 fa 4c 3d d8 00 28 3f 04 62 63 be
       -0.12116575 0.050043195 0.6562629 -0.22205359
0003a0 bd 2e b1 3e 11 04 95 be 22 f5 15 3b 1d a1 85 be
       0.3460597 -0.29104665 0.0022881706 -0.26099482
0003b0 9d d2 06 3f 43 1c 1d 3e 53 ca 8b be 7f b3 9a be
       0.5266512 0.15342812 -0.273028 -0.3021507
0003c0 b4 0f 31 be 7c d4 1c bc b0 f1 70 3e 6b 1d df 3e
       -0.17291147 -0.009572145 0.23529696 0.43577132
0003d0 a7 20 96 bc d1 3e 49 bd 88 49 cf 3e 0e 55 db bd
       -0.018326117 -0.049132172 0.40485787 -0.10709582
0003e0 c0 54 c6 bc 33 28 89 be 5f cb 02 3d 13 9f 62 be
       -0.024210334 -0.26788482 0.03193223 -0.22130994
0003f0 18 af 02 be d5 77 c2 3d 58 d9 88 3d be da 52 be
       -0.12762105 0.094955124 0.0668208 -0.20591256

linear2.weight f4 [3, 256]
000000 b9 30 42 be d1 fd 69 bd 26 96 8b be db 12 2b be
       -0.18963899 -0.057126824 -0.27262992 -0.16706412
000010 8c 18 d2 3e 7e a7 13 bd 4d e8 b5 be 7e 08 cc 3e
       0.41034353 -0.036048405 -0.35528794 0.3985023
000020 d9 09 41 be 70 a2 08 3f e2 b2 fc be f1 76 04 bc
       -0.18851413 0.5337286 -0.49355227 -0.0080849985
000030 18 92 9e 3e bb 95 83 3e 31 f2 38 3d 4b 6b 32 be
       0.30970836 0.25700173 0.045152847 -0.17423742
000040 0b 38 30 be 14 db 10 be c9 b2 f2 3e 61 27 52 bd
       -0.17208879 -0.14146072 0.47402027 -0.051307086
000050 32 5c a3 be 4b b7 47 3c 8e 35 e0 3e 53 23 70 be
       -0.31906277 0.012189697 0.4379086 -0.23450975
000060 d8 48 ef 3e 8b ed 16 be f9 fb b6 3a fa 39 0a be
       0.46735263 -0.14739053 0.0013960592 -0.13498679
000070 74 48 60 bd 07 5d bc 3e fe 1c 3a 3d 0b eb 94 3d
       -0.054756597 0.36789724 0.045437805 0.072713934
000080 99 e1 b2 3e c4 2a b4 bc 99 30 3c be d0 70 e9 be
       0.34937742 -0.021993048 -0.18377914 -0.45593882
000090 b7 1f 8a be af e3 81 be de 20 e4 bd 59 d7 64 be
       -0.26977322 -0.2536902 -0.111390814 -0.22347774
0000a0 eb fe bc be 1f 4f aa 3e 5c d3 40 3e 57 4a 02 bf
       -0.36913237 0.3326349 0.18830627 -0.50894684
0000b0 72 08 44 bd 2f b7 ed 3e d7 b3 59 be c9 96 20 be
       -0.047859617 0.4642882 -0.2126001 -0.1568252
0000c0 26 ea 89 be 3e f3 11 be d0 d8 57 3e 6a 1b cb 3d
       -0.26936454 -0.14252946 0.21078801 0.09917338
0000d0 7f 62 a2 3e 35 c3 bf be 86 fd 75 be ca f8 00 bf
       0.31715772 -0.3745362 -0.24022493 -0.5037962
0000e0 28 86 8a bd 4a c5 0e be 2f af af 3e c6 1b b0 3e
       -0.067638695 -0.13942447 0.34313342 0.3439619
0000f0 3b d8 5c 3e b0 cc 21 bd df 28 1b bb d1 e2 d1 be
       0.2156686 -0.039501846 -0.0023675484 -0.4099336
000100 37 56 7b be 56 e6 9b bd b5 1b 03 3c ed bd d2 3c
       -0.24544607 -0.076122925 0.008002211 0.02572533
000110 e4 d1 f2 bc bf 65 5a bd 41 eb 73 3c 0d c4 2e 3e
       -0.0296411 -0.05331969 0.014887632 0.17066975
000120 96 3c ae bc 01 10 fb 3d 3d 4f 3b 3e 0e 01 99 3e
       -0.021269124 0.12258912 0.18291946 0.29883617
000130 15 35 bf be 44 6d 5e bd 85 79 d6 bd 4d 1e e2 3c
       -0.37345186 -0.054303423 -0.10472397 0.02760234
000140 67 b1 00 bd b6 d2 16 bf 0d 35 70 bd cb 93 b6 be
       -0.031419184 -0.5891527 -0.058644343 -0.35659632
000150 57 15 da bd 30 6d 0c bf 9a 37 62 3c f2 6e a4 3d
       -0.106486015 -0.54854107 0.013807202 0.08028974
000160 27 f9 28 ba bb 86 de bd a2 14 1c be b8 87 fa 3d
       -0.0006445818 -0.108655415 -0.15242246 0.122329175
000170 7a ec 99 be 98 a4 f9 bd 7a 92 79 be 0e 8b 85 3e
       -0.3006323 -0.12189597 -0.24372283 0.26082653
000180 b8 91 ad be 1f 14 fd 3c 46 ea 05 be 8a 56 3d be
       -0.33900237 0.030893384 -0.1307765 -0.18490043
000190 8f db 22 3e 03 f0 f8 be 44 07 1c 3e af 74 df bd
       0.15904067 -0.48620614 0.15237147 -0.109109275
0001a0 74 bc a6 3e 82 8f 60 bd c0 6c 90 3c 72 d3 1a be
       0.32565653 -0.05482436 0.017629981 -0.15119722
0001b0 84 78 56 3e 90 12 97 3c 8c 45 c7 3e f2 a1 f9 3d
       0.2094441 0.018441468 0.38920248 0.12189092
0001c0 8d 00 a8 3d 1d fc 97 be d0 d7 ae 3e 69 58 9e 3c
       0.0820323 -0.29684535 0.34149027 0.019329267
0001d0 49 1e 79 3e ee f8 18 3e 8b 6f 9d 3e 7a e3 8a bd
       0.24327959 0.14938709 0.30749163 -0.06781669
0001e0 c5 43 6f bc f0 fa 8c 3e 0e bf 3c be f5 27 c9 3e
       -0.01460356 0.275352 -0.18432257 0.39288297
0001f0 13 e5 93 3e 18 0a 90 3d a1 2e 8a 3d e2 cf bd 3d
       0.28885707 0.07033175 0.06747175 0.09268166
000200 4d 42 23 3d 72 78 ff 3c 80 77 ae bc 0c 68 8f bd
       0.03985815 0.031185362 -0.021297216 -0.07002267
000210 3c e8 6c be e6 e0 9e be 90 7f 2b be ce d9 a7 3c
       -0.23135465 -0.3103096 -0.1674788 0.0204896
000220 ff 16 74 3e a5 23 6d bd 43 55 d2 be 15 c9 8a 3e
       0.23836897 -0.05789532 -0.41080675 0.27106538
000230 e9 29 30 bd f0 a9 64 bc b9 da e0 be cc 33 d0 bd
       -0.04300872 -0.013956532 -0.43916872 -0.101661295
000240 b4 b4 29 be ee 8e d6 be 58 5a 95 3d c7 ab ed bd
       -0.16572839 -0.41905922 0.07292622 -0.116050296
000250 22 2d ac bd 7e a5 cf be f6 65 e0 3e d2 35 27 bf
       -0.08407046 -0.40555948 0.4382779 -0.653165
000260 42 eb b0 bc bf 49 af bc 39 b3 44 3e 19 c9 9b 3e
       -0.021596555 -0.02139747 0.19208993 0.30426863
000270 2a 47 12 be 39 92 24 be 18 04 98 3e 3c 61 3e bd
       -0.1428496 -0.16071405 0.29690623 -0.04647945
000280 ac 6f 95 3c 47 7d 36 be 4c aa 6d bc a6 3a f4 bd
       0.018241726 -0.17821227 -0.014505934 -0.11925249
000290 1c a7 97 3d 19 a1 d4 be be 09 f0 3b 70 eb db bd
       0.074049205 -0.41529158 0.00732538 -0.107382655
0002a0 d4 90 82 bd 82 38 2c 3e 48 8b bd 3e 82 98 52 3e
       -0.0637528 0.16818431 0.37020326 0.2056599
0002b0 7b f4 11 bf 10 69 9c 3e 95 4e aa be 5f b9 54 3e
       -0.5701367 0.30548906 -0.33263078 0.20773838
0002c0 50 c2 88 bd 91 42 9f be 4d 73 7c be 43 b8 dc 3e
       -0.06677687 -0.31105474 -0.24653359 0.4310933
0002d0 ca cc 9e 3e b6 f7 74 bc 48 3c 2c 3e cc b4 9e 3b
       0.31015617 -0.014951637 0.1681987 0.00484333
0002e0 33 24 e0 be 03 21 92 3e 10 0d 10 bf db 3a 17 bf
       -0.43777618 0.2854081 -0.5626993 -0.5907418
0002f0 f0 74 14 3c 42 fd 61 be aa 08 b8 bb 2d 9b 3a bd
       0.009061083 -0.22069266 -0.005616267 -0.045558143
000300 5e 0f 98 bd b5 1c 88 3e a6 6f b8 3d 68 af f1 bd
       -0.07424806 0.26584402 0.0900567 -0.11801034
000310 02 f3 9b be 6d 6b 78 be 69 02 db bc fb f9 e7 bd
       -0.30458838 -0.2425973 -0.026734548 -0.11326977
000320 13 c6 83 3e 96 41 85 3e 9a 5a 47 3c ce 32 5a 3c
       0.25737056 0.260266 0.012167597 0.013317777
000330 2b 8d 52 bd 1c e1 0d bf 9a 52 b3 be 5f 57 50 3e
       -0.05140416 -0.55421615 -0.35023957 0.2034583
000340 dd 1b 04 bf 8a 2b 6e be cd 26 e0 be 1e e7 7b 3e
       -0.51605016 -0.23258796 -0.43779603 0.24599883
000350 0b ba 07 3e 5b 4a 3f 3e 95 b3 e7 be a3 95 72 3d
       0.13254564 0.18680708 -0.45254198 0.059224736
000360 2c e8 55 be 8b 80 1f be d4 57 b4 3e 82 6d 37 3e
       -0.20889348 -0.15576379 0.35223258 0.17912868
000370 e8 18 a7 bd 71 51 6a 3d 97 d2 36 bd a1 0a 97 3e
       -0.08159047 0.057206575 -0.044634428 0.29500297
000380 ff c2 7b 3e fa a6 c2 bc 8c 23 e1 3e b1 13 2c 3d
       0.24586104 -0.023761261 0.43972433 0.042010967
000390 b4 63 f4 bd ed 81 31 be 91 af 80 3e a9 f6 c1 bd
       -0.11933079 -0.17334719 0.25133947 -0.09470875
0003a0 3e 5a f0 3e 8e ec 88 be 21 27 7f 3e 52 84 58 3d
       0.4694385 -0.26742977 0.2491727 0.052860565
0003b0 83 d3 8a 3e 9d a3 88 3e 78 2a a9 bd 60 32 ee bc
       0.27114496 0.26687327 -0.082600534 -0.029076755
0003c0 b5 d8 2d be 17 71 5b be e3 67 f7 3e 6b 4e d5 3e
       -0.16977198 -0.21429859 0.48321447 0.4166139
0003d0 ac 73 04 be 54 8d c9 be e9 ea 11 3e dd 29 8d bb
       -0.1293475 -0.39365637 0.14249767 -0.004307969
0003e0 0e 78 72 be 70 5b 22 3c 73 f1 29 bf d7 a6 f7 be
       -0.2367861 0.009909496 -0.6638405 -0.48369476
0003f0 0f 06 1a bd e0 1d bb 3e 38 78 1f 3e f0 18 1a bd
       -0.037603434 0.3654623 0.15573204 -0.03762144

linear2.bias f4 [3]
000000 34 21 17 3e 9e 69 82 3d ce 97 58 bc
       0.1475876 0.06367801 -0.013219787
