model/model.pth (torch, 17216 bytes, 4 tensors)

linear1.weight f4 [256, 11]
00000000: 7928 5e3e cae1 883d 2452 8a3e 2512 7d3e
00000010: fd22 3d3e 6210 e6bd ab56 e13d d221 2a3e
00000020: 2fab 97be adce 97be af49 983e f930 813c
00000030: 0a4b 3b3e a763 99be e01d 93be 9c01 2b3b
00000040: f099 193e 86e1 893d 7379 033e 6bfc eabd
00000050: 4e61 a93d 2ab4 03be fd77 93be 22b4 453e
00000060: 428a 4e3e c996 2b3c b94b 8cbe 743f 943e
00000070: f2bf 1ebe 6713 fabd 8015 e73d 1480 11be
00000080: f887 8fbe ce85 1c3d f9ac 093e 6005 28be
00000090: aa3e 043e e5b8 443e 77d7 2f3e e8d4 06be
000000a0: b6cc a33d 9606 adbd 49b2 5ebd 975a 0bbe
000000b0: 183c 713e 3b57 193e 91d9 34be e40b 1bbe
000000c0: f329 853e fc27 633e 94eb 1cbe b88e 963d
000000d0: 0282 4dbe 0fa2 27be 2afe 16be 4911 073e
000000e0: 1ad1 2d3e 50f0 873e 4efa 9bbe 8919 f53c
000000f0: 284a 643e 3109 9f3e 6459 8a3d eee6 143e
00000100: 3062 92be 4199 55bd 8b20 283e ff5f 2e3e
00000110: 3feb 05be 38c6 6cbe 5e1f 3d3e 960d 523e
00000120: bdcc 713e b79d 873e 1977 86be a65e 403e
00000130: 37d3 833d b922 2dbc 7abf 993e 4106 adbd
00000140: 54d0 e4bb d723 443d e8bc d1bd 0996 4d3d
00000150: 5647 963e 3257 5a3d ec0e 093d cfc3 b93d
00000160: 3c62 8c3d 8794 0dbe e44f 82be 507a 53bd
00000170: 83dc 8ebe cfa9 73be 41c9 643e fb1b 183e
00000180: 7812 e43c 799e 233e ae58 59be 4c4e 2b3d
00000190: e26b d9bd 2211 40be eb55 633d fa80 233e
000001a0: ab73 913e 47b6 833e a08c 15be 40a3 a3bd
000001b0: 00c2 863e 5b96 f13c 00c1 a33c eeec 5b3e
000001c0: fed7 163e 2c1a 783e 5fc0 36be 0fe4 113e
000001d0: 32a7 32be 6fb8 88be af6f 18be aa89 3a3e
000001e0: 0c96 25be 1dab 943e c11b 223e 36ff 883e
000001f0: 76fd dcbd 9a58 dcbd 7ea9 4b3b f4a6 e53d
00000200: 2065 ddbd 28a4 f2bb 53c0 023e 8b93 573e
00000210: 1f41 f2bd 0452 943d c05d 503c 46ac 123e
00000220: 081a e63c d933 9dbb 2bc2 323a d561 b9bd
00000230: be82 d53d 942f 763e 8a3f 3abe e216 533c
00000240: 4c47 64bd adab 47be 6a27 9abe 5eb8 5d3e
00000250: 34b7 9abe aafa b9bd 5314 fdbd 9cd2 8e3e
00000260: 7aa0 9abd ac92 d33d 70fd c7bd 10c0 9a3e
00000270: 90cb 2b3d 3ed6 8dbc bda3 f03d 0f6c 04bd
00000280: 121a 1f3e 9991 193e 9192 84be 9218 9f3e
00000290: 4268 6abd 2442 beba e59d 8bbe 20a4 593d
000002a0: 52e5 62be 3847 6dbe 4832 95bd d26e e23c
000002b0: 8a84 84be bdf6 a93c 8c07 7a3e 6786 663e
000002c0: b38b 233e ced3 0c3d 172b 423e 08cb 4ebe
000002d0: a898 83be 0424 0cbd 35c8 79be 8121 1b3e
000002e0: 43ce 953e 2829 a0bd deaa 6f3e e59b 58be
000002f0: fe82 e5bd a454 763e a018 06bd b82a 42be
00000300: e144 53be 597a 1ebe 24bb 5a3e beab d9bd
00000310: 297e 96be 7f55 43be 75e4 983e abd7 9fbc
00000320: 0a2a 54be 9f8c 2ebe 2516 8d3e f524 79be
00000330: 199e 81be 73c4 3dbd fe64 42be 722b 5e3e
00000340: c409 d83c 6fa5 f13d 40c7 3dbe 208d 053d
00000350: da49 96be a4a6 21be 9dbe 0fbe a300 2d3e
00000360: 0f61 78bd 026a 28bd 80ad 9dbe b26d 11be
00000370: b883 41be ecac 81be 9e8f debd e26e 6fbe
00000380: 9243 88be 64ed 283e 71c1 28be aa3e 313e
00000390: 8a53 fabd c4f5 343d 4b67 423e 04db c3bd
000003a0: 4713 2cbe cbec 0fbd 3a69 e0bc e785 5abd
000003b0: 108d ebbd 762f 0fbe a3b3 c6bd afc4 8b3e
000003c0: 2fdf ca3c 5b92 8e3d 2f7c babd 90e9 063e
000003d0: e447 853d 17ba 8e3e a82c 97bd 0086 4abd
000003e0: a634 c2bb 7345 583e a0df 7dbd a517 083d
000003f0: cd83 f9bb e8e3 213e b827 f4bd e547 10be
0.21695127 0.06683691 0.27015793 0.24713953 0.18470378 -0.112335935 0.11002859 0.16614464
-0.2962279 -0.2964987 0.29743716 0.015770422 0.18290344 -0.2995884 -0.2873373 0.0026093489
0.15000129 0.06732468 0.12839298 -0.11473926 0.082705125 -0.12861696 -0.2880248 0.19306996
0.20169929 0.010472962 -0.27401522 0.2895466 -0.15502909 -0.12210732 0.11283398 -0.14209014
-0.28033423 0.038213544 0.1344489 -0.164083 0.1291453 0.19211157 0.17172037 -0.13167155
0.0799803 -0.08448522 -0.054369245 -0.13608776 0.2355808 0.14974682 -0.1766112 -0.15141255
0.26008567 0.22183222 -0.15324241 0.0735144 -0.20069125 -0.16370414 -0.14745393 0.13190188
0.16974297 0.2655053 -0.30464405 0.029919403 0.22293913 0.310617 0.06755331 0.14541218
-0.28590536 -0.052148107 0.16418664 0.17028807 -0.1307802 -0.2312249 0.18468997 0.20512995
0.23613258 0.26487514 -0.2626274 0.18786106 0.064367704 -0.010567361 0.30028898 -0.084484585
-0.0069828425 0.047885742 -0.10241109 0.050191913 0.293513 0.053305812 0.033461496 0.09070551
0.06854674 -0.1382619 -0.25451577 -0.05163032 -0.27902612 -0.23795246 0.22342397 0.14854424
0.027840838 0.15978421 -0.21225235 0.041822717 -0.1061628 -0.18756536 0.05550186 0.1596717
0.2840856 0.25725004 -0.14604425 -0.07990122 0.26319885 0.02949064 0.01998949 0.214771
0.14730832 0.24228734 -0.17846821 0.14247154 -0.17446592 -0.26703212 -0.14886354 0.18216577
-0.1617052 0.290368 0.158309 0.2675721 -0.10790531 -0.10759087 0.0031076367 0.112134844
-0.10810304 -0.007404823 0.12768678 0.21052377 -0.11828827 0.07242206 0.012717664 0.1432353
0.028088585 -0.0047974405 0.00068190944 -0.09051863 0.10425328 0.24041587 -0.181883 0.012883874
-0.055732056 -0.19499083 -0.30108196 0.21652362 -0.30217898 -0.090810135 -0.12357392 0.27895057
-0.0755014 0.1033071 -0.09765136 0.30224657 0.04194218 -0.017314073 0.117499806 -0.032329615
0.15537289 0.14996947 -0.2589307 0.31073433 -0.057228334 -0.0014515561 -0.272689 0.053135037
-0.22157791 -0.23171699 -0.07284981 0.027640734 -0.2588237 0.020747537 0.24416941 0.22512208
0.1597126 0.03438168 0.1896175 -0.20194638 -0.25702405 -0.034214035 -0.24392779 0.151495
0.29258928 -0.0782035 0.23405024 -0.21153219 -0.112066254 0.24055725 -0.032738328 -0.18961608
-0.20631744 -0.1547636 0.21360451 -0.1062846 -0.29393128 -0.19075583 0.298618 -0.019512018
-0.20719162 -0.1704583 0.27555957 -0.24330504 -0.2531593 -0.046329927 -0.18983838 0.2169626
0.026371844 0.11799132 -0.18533039 0.03260529 -0.2935322 -0.15786225 -0.14037557 0.16894774
-0.060639437 -0.041116722 -0.30796432 -0.14202002 -0.18897903 -0.2532724 -0.108672366 -0.23382142
-0.26614052 0.16496807 -0.16480042 0.1730906 -0.12222965 0.044179693 0.18984716 -0.09563258
-0.16804229 -0.035137933 -0.027393926 -0.053350355 -0.11501515 -0.13982949 -0.09702232 0.27298495
0.024764625 0.06961509 -0.091057174 0.13175035 0.06507853 0.2787635 -0.073815644 -0.0494442
-0.0059266863 0.21120243 -0.061980844 0.033225674 -0.007614589 0.15809596 -0.11921638 -0.14089926

linear1.bias f4 [256]
00000000: 9007 ebbd 4ada 87b9 d1d8 8a3e 0887 1c3d
00000010: 0b98 853e a4f7 8c3e ea7f 4e3e 565a 883e
00000020: 7a9e 46be 012e 12be 77f8 cf3d bd7d 4dbe
00000030: 7b3e e1bc 4891 5b3e ab9d 26be 11ad 1cbe
00000040: e28a 84be dc00 b0bd 33e4 8c3d e70f 223e
00000050: 86de 8abe 72de 9b3e ee4b b73c 959c 043e
00000060: a0d9 503e 99fc 40bd ccc1 b13b 5352 9bbe
00000070: 4bbe 303e cc8f 6abe bdc9 3cbb 52c6 08be
00000080: b6dc a53d 53cf 493d c2cc 923e cc7c c43d
00000090: 4040 77bd 14f4 103e 74a7 193e 5cb6 0abe
000000a0: 4292 3cbd d12b 093d ca89 c33d e23e 7dbe
000000b0: 04ac fd3c 47ce fc3d 225d f3bd 2fc4 583e
000000c0: 8344 713e c47e 58be 7a0c 293e 5960 7bbc
000000d0: 8a17 8a3e 39b6 6dbe 3555 043e c4a9 343e
000000e0: f21f 553e 08e1 903e 327f fabd e415 e4bd
000000f0: 1c1c 8ebe 1c2d 9dbd d42f 09be d6a0 253d
00000100: 0b93 123e 4967 cc3d af6e 643e 6729 1a3e
00000110: 367c 9d3e 9c0e 8a3e 042c 19be fdfd 6fbd
00000120: 8989 cdbd a90b 96bd 02af f83d 41df 7ebe
00000130: bb71 ac3d a7af c9bd 0dfd dcbd b5b2 453e
00000140: 02ca 80be 1e15 33bc a1c1 73be dfac 0bbe
00000150: a4a4 3c3e 1986 62be ecd6 c83c c03e 7cbc
00000160: ccb7 763e 1054 77be e38e 48be 7619 0bbd
00000170: 6402 173d a020 943e 9e9b e8bc 3f20 7abe
00000180: be15 5cbe 4583 da3d d31f 523e 3b96 473e
00000190: bd08 623e 0d5c be3d 2e46 3fbd dffa 94be
000001a0: 6bd5 59be 5fe4 8ebd 2ad0 7e3e 8450 9c3d
000001b0: 655a 73be 5cd1 85bd da8d 383d 2afd 12bd
000001c0: 3089 51be 7821 2dbe 7c2f 3e3d 2e8a 43bd
000001d0: 6f36 243e 39e1 c9bd 8217 973d 46a1 803e
000001e0: 0413 0ebe f946 5bbd e18c 823e 9a2d 2e3e
000001f0: 2e26 3bbe b78a 76bd f213 1abd 95bd 9b3e
00000200: d8c7 3dbe 6ab3 a8bb 9dfa 22be 7d60 31be
00000210: 50d6 e1bd 1b6d 033e 7c0c 1a3e 49c3 a63d
00000220: 9cb9 143e afe5 1f3e c26d 863e b3b1 42be
00000230: e6c2 143e 2e02 913d cf77 1dbe 4ad6 393e
00000240: 475c ae3d 9212 90bd 420c 743e 2432 28bd
00000250: d921 9d3e 6a94 633e 332b 893e f43b 543d
00000260: c822 8fbe 6844 15bd 7e30 22be b30a e7bd
00000270: 2270 64be 7aa2 78be 6947 193e 353c 893e
00000280: 54c1 8c3d 735f 1bbe 47b5 aebd 2ee9 5bbe
00000290: 486f 45bd 2ae0 053e 61dc 1a3e 603c 113d
000002a0: 9b9b 76be 40f5 86be 9bca 263e 6ea1 7f3e
000002b0: e99e 843e e044 733e a260 94be 7638 553e
000002c0: a2e3 dbbd 651c 29be dc73 3e3e 9ef8 263d
000002d0: 0ee9 2bbe beb3 053e 969e 71be f9ee 473e
000002e0: 4437 eebc dd79 b73c 6aff 7ebe 2a36 083e
000002f0: 4f56 5dbe d1a0 6bbe 2e0f 4c3e 7035 20bd
00000300: 859f 583e 3db7 1a3e cc9e bebd 7a38 88be
00000310: 8abb 993e bbe3 873e 9be1 9c3e 9370 493c
00000320: 4710 16be 39a6 de3d 2b85 bcbd f77a c03d
00000330: 2f1f 7abd c0e4 7bbd 9244 003e 9346 933d
00000340: cce3 7abe 8492 173d ddbd 50be 1378 89be
00000350: 0e01 903d 48c0 debd 46cf 923e d3bc cc3c
00000360: a9b2 273e ed82 a0be e2ae cd3d 3309 8e3e
00000370: 5e4f 163d 7ce3 9a3e dd48 95be f8ed 7f3e
00000380: 7e9d 51be a594 b6bd 080e 4b3e 19c1 943e
00000390: 0e01 30be 8b95 45bd 299d 54bd bf87 b33c
000003a0: 4c0d 25be ddfb 8bbe 2b12 ca3d 0353 6a3e
000003b0: 5ca6 0fbe c714 23be 810a 20be f7ce 453e
000003c0: 391a 213e 294b 733e f0ce 283e 72f7 ac3d
000003d0: 702d 9c3d 0753 8cbd 4f9d 93be 7150 753e
000003e0: 08f4 23be 2d9f 26be 14ba 5fbd b388 69be
000003f0: 4857 ca3d 5645 5f3e f9a7 11be 8f58 8ebe
-0.11476052 -0.00025911845 0.27118543 0.038214713 0.26092562 0.27532685 0.20165983 0.2663142
-0.19396392 -0.14275362 0.10154813 -0.20067497 -0.027495613 0.21442139 -0.16271083 -0.15300395
-0.2588721 -0.08593914 0.06879463 0.15826379 -0.27122897 0.3044315 0.022375073 0.12950356
0.20395517 -0.047115896 0.0054247137 -0.30336246 0.17260091 -0.22906417 -0.0028806769 -0.13356903
0.08098738 0.049269985 0.28671843 0.095941156 -0.060364008 0.14155608 0.15005285 -0.13546127
-0.04603792 0.033489052 0.095477656 -0.24731019 0.030965813 0.12344032 -0.11882998 0.21168588
0.23561291 -0.21142107 0.16508666 -0.015342795 0.26971084 -0.23214044 0.12923129 0.17642885
0.20812967 0.28296685 -0.12231292 -0.11136988 -0.2775582 -0.076746196 -0.13397151 0.04043659
0.14313905 0.099806376 0.22307847 0.15054856 0.30758828 0.2696427 -0.14958197 -0.05859183
-0.100359984 -0.07326443 0.12142755 -0.24889852 0.0842013 -0.09847956 -0.10790453 0.19306453
-0.2515412 -0.010930328 -0.23804332 -0.13640164 0.1842218 -0.22121467 0.024516545 -0.01539582
0.2409355 -0.24153161 -0.19585757 -0.03395983 0.036867514 0.2893114 -0.028394517 -0.24426363
-0.21492669 0.10669569 0.20519952 0.19490902 0.22073646 0.09294901 -0.046697788 -0.2909765
-0.21272819 -0.06977152 0.24884096 0.07632545 -0.23764952 -0.06534073 0.045057155 -0.035885967
-0.20462489 -0.16907299 0.046432003 -0.0477392 0.1603639 -0.09857411 0.07377531 0.25123042
-0.13874441 -0.05353448 0.25498107 0.17009583 -0.18276283 -0.060190883 -0.037616678 0.30418077
-0.18533266 -0.005148341 -0.15915914 -0.17321964 -0.11027205 0.12834589 0.15043825 0.081427164
0.1452393 0.15614961 0.26255614 -0.190131 0.14527473 0.07080494 -0.15377735 0.18148151
0.08513694 -0.07034792 0.23832801 -0.041063443 0.30689886 0.22224584 0.2679077 0.05181499
-0.27956223 -0.03644219 -0.15838811 -0.112813376 -0.223084 -0.2428073 0.14968647 0.26803747
0.06872812 -0.1517313 -0.0853067 -0.2147567 -0.04820183 0.13073793 0.1512313 0.03545797
-0.24082796 -0.26358986 0.16288225 0.24963924 0.2590249 0.23756742 -0.28979975 0.2082232
-0.10736777 -0.16514738 0.18598884 0.040764444 -0.16788122 0.13056847 -0.23595652 0.19524755
-0.029079087 0.022396976 -0.2490212 0.13301912 -0.21614955 -0.23010565 0.19927666 -0.039113462
0.21154602 0.15108962 -0.09307632 -0.26605588 0.30025893 0.26540932 0.30640873 0.012294906
-0.14654647 0.10871548 -0.09205087 0.09398454 -0.061064895 -0.06149745 0.12526157 0.07191195
-0.2450096 0.037004963 -0.20384927 -0.26849422 0.07031451 -0.108765185 0.28673762 0.024992382
0.16376747 -0.31349888 0.10043122 0.27741393 0.036696784 0.30251682 -0.29157153 0.24993122
-0.20470235 -0.089150704 0.19829571 0.29053572 -0.17187902 -0.04823832 -0.051907692 0.021915315
-0.16118354 -0.27340594 0.098667465 0.22883229 -0.14028305 -0.15925895 -0.15629007 0.19317232
0.1573266 0.2375914 0.1648519 0.08445634 0.07625854 -0.06851774 -0.28830954 0.23956467
-0.1601106 -0.16271658 -0.054620817 -0.22806053 0.09879929 0.21803793 -0.14224233 -0.2780194

linear2.weight f4 [3, 256]
00000000: f555 7ebd 8676 ec3c 68a2 5e3d 787f 3a3c
00000010: c863 5dbd e8cd 4fbd a00a 143d 4a06 95bd
00000020: f95e efbc fc9a 5abd d5ee 8c3c de57 3bbd
00000030: e2c0 7c3d dbf2 6fbd a5be 713d 6b37 1cbb
00000040: 7dd0 083d 8020 3b3b d2a4 86bd 9491 a2bb
00000050: 9740 2f3d dc3b 69bc 44c3 a33c a6eb b83c
00000060: 088f df3c c3bb 133d 1dc3 0f3d 52c3 c5bc
00000070: a901 e73c 8914 fbbc 0133 783c 09e0 5dbd
00000080: 4d24 9ebc 9ba0 33bd 1e82 9dbd 654d d23b
00000090: c578 173c 5642 3cbd 7593 e93c abd2 843b
000000a0: 4f7c ee3c 514f 7abd 4ecf 8f3c 2d4a 463d
000000b0: 652a 54bd 0b74 77bd a035 5a3d b599 303c
000000c0: eb3a 75ba 32f6 f1bb 627f 2dbc 3b63 95bd
000000d0: 6845 39bd aa85 ce3c 1e94 87bc e113 5dbd
000000e0: b306 47bd cd3b a2bd 1d8d b63c 3c11 cf3c
000000f0: 3f36 97bc 57ef 123d d9a4 86bd c530 0c3d
00000100: fd12 79bb 4a74 ce3c 4a50 80bc d955 68bd
00000110: a986 933c 0768 6fbc ceaa bf3c f75f ddbc
00000120: 8296 8d3d 45ce 823d 5eac 7ebd 16b1 7f3c
00000130: 2828 0b3d 90d9 863d 1012 c03c c598 04bc
00000140: 3c9d 5f3d b7f6 fb3c 0467 c73a f45a 47bb
00000150: ebaf ea3c 088b 623c 932d d5bb ce3b b03c
00000160: 66f8 d93c e4a3 8f3c f405 18bd bda8 89bd
00000170: 372b 0e3d 706a 47bd ffa8 92bd 5c21 8cbc
00000180: 9a08 4e3d a9aa ffbc b450 e1bc ae72 5c3d
00000190: 9c82 6ebd a0db cf3c 63f7 93bc 72c8 75bd
000001a0: 8afc 1a3d e961 dbbc 9586 8fbd f59e 2f3c
000001b0: d533 efba fa42 263c 540a 74bd 6e6c 573d
000001c0: 3c58 54bc 5208 9cbd 4a65 3fbd e5ed 233d
000001d0: eb05 efbc b57d 32bb 53f8 173d f473 463d
000001e0: 15f8 39bc 6de7 643d 0cb9 db3c 3816 403d
000001f0: 88ba 1b3c 0a4c b33c 3f04 4dbd fdd7 80bd
00000200: d43b 34bd 1dcd f4bc 8f69 2e3d 42f3 ad3d
00000210: 98e7 5cbd 1278 10bd 6093 47bc 0023 61bb
00000220: 9fd0 86bd 01cc cfbc 927e 04bd 0bf9 46bd
00000230: 55fd 3fbc ea99 89bc b2bb f6bb 26ee 093d
00000240: fb4e 7fbd eab4 dcbc d767 3ebd 30b8 8ebd
00000250: 37b9 453c 9f7a 273d 35e7 bcbc a838 073d
00000260: c0ca 7cbc faf3 3d3d 1298 23bd 128d 61bc
00000270: 70c2 d1bc a04c d8bb 4d2a b13c 5d3d bf3b
00000280: 97fb c8bc c210 1dbd c88b f83c 517d bb3c
00000290: 79bf 0fbd 0fe7 01bb 301f eebc 6cab 343d
000002a0: fa73 48bd 1c9a 1e3d 1c2f 3b3d c162 193d
000002b0: c397 89bd b8be 4a3d 5050 95bb 6891 84bd
000002c0: 4dd8 a6bd 0203 a3bc 784a 803c 6a42 9d3c
000002d0: fca2 fd3b f274 073d 40e2 18bc 1469 943c
000002e0: a910 0ebd b7c5 563c f4ba 17bd 5f16 993d
000002f0: 0435 8fbc 2cfe 81bd 901b 0abd 3354 efbb
00000300: 0e9d 7dbd b072 71bd af86 7c3d 168e 203d
00000310: 1915 83bd 9c96 0ebd 4136 93bd f9d0 12bd
00000320: a2ab 443d 92f7 cebc 99f0 b13b df9b eebc
00000330: f0bb 973b 9432 39bc b09a 073b dd9f 54bc
00000340: 80fa 23bc e51f 02bd 94c3 403d 782b 3bbc
00000350: b590 733c cc87 533c b640 e8bc a4b5 1b3c
00000360: daa0 d0bb 083e 8c3b 68e9 98bd 33cb fd3c
00000370: 3112 41bc 157f 3dbd 18fe 643d 1ae5 e63c
00000380: 4002 daba d807 283a d942 c5bc d755 56bc
00000390: 115e 44bd ce23 533d efe0 273d 9849 36bc
000003a0: 5945 4b3d 5087 2cbd e1f7 fe3c b513 653d
000003b0: a0c6 3d3b 0ee3 60bd 9654 44bd 26cc 2a3d
000003c0: d8f3 4fbd e82a a8bd 39aa b53c 4489 22bd
000003d0: fa70 9d3c befd 18bd 215d adbc a26b 803c
000003e0: 00b5 de3b 812f fe3c 4ca6 163d 4545 46bd
000003f0: 815f 3f3d 13f9 35bd df75 a4bb 0969 b73c
-0.062093694 0.02886511 0.0543541 0.01138293 -0.054050237 -0.050733477 0.036142945 -0.0727659
-0.029220091 -0.05337046 0.017203728 -0.045738094 0.061707385 -0.058581214 0.059019703 -0.0023836743
0.033401955 0.0028553307 -0.06574406 -0.004961202 0.042786207 -0.014235463 0.01999057 0.022573303
0.027289882 0.036067735 0.035098184 -0.024140988 0.028199034 -0.03064944 0.015148879 -0.054168735
-0.019304419 -0.043854337 -0.076908335 0.0064179176 0.009245102 -0.0459617 0.028512696 0.004053434
0.02911201 -0.0611108 0.017554905 0.048410583 -0.051798243 -0.0604134 0.053273797 0.010778834
-0.0009354788 -0.007384085 -0.010589452 -0.07294317 -0.045232207 0.02521022 -0.01655012 -0.053974036
-0.048590373 -0.07921562 0.022284085 0.025276773 -0.018458484 0.035872784 -0.06574411 0.034226198
-0.0038005703 0.025201935 -0.015663285 -0.056722496 0.018008547 -0.014612204 0.023396876 -0.027023299
0.06913473 0.06386999 -0.0621761 0.015606185 0.033973843 0.065844655 0.023446113 -0.008093064
0.05459331 0.030757291 0.0015213196 -0.0030419203 0.028648337 0.013827093 -0.006505677 0.021512892
0.026607703 0.017534204 -0.037115052 -0.067216374 0.03470918 -0.04868549 -0.0716114 -0.01710575
0.05030117 -0.031209307 -0.027504303 0.053820305 -0.058230028 0.02537328 -0.0180623 -0.060005613
0.037838496 -0.026780086 -0.07008091 0.010719051 -0.00182497 0.010147804 -0.059580162 0.05259364
-0.01296049 -0.076187745 -0.046727456 0.040021796 -0.029177627 -0.0027235572 0.037102055 0.048450425
-0.011350651 0.055884767 0.026821636 0.04689619 0.009504922 0.021886844 -0.050052878 -0.062911965
-0.04400237 -0.029882962 0.042581137 0.08493663 -0.053931803 -0.035270758 -0.012181133 -0.0034353137
-0.0658276 -0.025365831 -0.03234727 -0.04857735 -0.011718114 -0.016797025 -0.0075296992 0.03367438
-0.06233118 -0.026941735 -0.04648575 -0.06968725 0.012068084 0.040888425 -0.023059467 0.033013016
-0.015429199 0.046375252 -0.039939947 -0.013766544 -0.02560541 -0.0066009313 0.021626616 0.0058361725
-0.02453403 -0.03834606 0.03034009 0.022886904 -0.035094712 -0.001982156 -0.029067606 0.044108793
-0.04893873 0.03872119 0.045699224 0.037447695 -0.067183994 0.04949829 -0.004556693 -0.064730465
-0.08146725 -0.019898895 0.01566051 0.019196708 0.0077403765 0.033070512 -0.009331286 0.018116511
-0.034683857 0.013108662 -0.037043527 0.0747497 -0.017481335 -0.063473076 -0.033717692 -0.0073037385
-0.061917357 -0.058947265 0.06165188 0.039198004 -0.064005084 -0.0348116 -0.071880825 -0.035843823
0.048015244 -0.025264535 0.005430293 -0.02912706 0.004630558 -0.011303563 0.0020691566 -0.0129775675
-0.010008454 -0.0317687 0.047061518 -0.011423938 0.014866044 0.0129107945 -0.02835117 0.009503756
-0.0063668313 0.0042798556 -0.07466394 0.030980682 -0.011784122 -0.046263773 0.055906385 0.028185416
-0.0016632751 0.000640986 -0.024079727 -0.013081989 -0.04794127 0.051547818 0.040985998 -0.011125945
0.049626682 -0.04212123 0.031124057 0.055926997 0.00289575 -0.054904036 -0.04793223 0.041698597
-0.050769657 -0.08211309 0.022175895 -0.039681688 0.01921891 -0.037351362 -0.021162571 0.015676323
0.006796479 0.031028511 0.036779687 -0.048405904 0.04672194 -0.04442699 -0.005018934 0.022388952

linear2.bias f4 [3]
00000000: 2851 89bd e098 33bd 23ec 11bd
-0.067049325 -0.043846965 -0.03562559
