model/model.pth (torch, 17216 bytes, 4 tensors)

linear1.weight f4 [256, 11]
0	0xbe057da4	-0.1303621
1	0xbef7b5de	-0.4838094
2	0x3dc8580d	0.09782419
3	0x3b1ff6b2	0.0024408516
4	0x3d27042d	0.040775467
5	0x3dd534ef	0.10410487
6	0x3e0ee7b4	0.13955575
7	0x3d5753d1	0.052570168
8	0xbe209127	-0.15680371
9	0xbe0da145	-0.1383105
10	0xbe7086ef	-0.23488973
11	0xbf03a712	-0.51426804
12	0x3d05bc31	0.032650176
13	0x3efc5fa2	0.49291712
14	0x3db4d85f	0.08830332
15	0x3e867e88	0.2626841
16	0xbee4a3a2	-0.44656092
17	0x3e96608d	0.29370537
18	0x3ea689c3	0.3252698
19	0x3d8e30ce	0.069429025
20	0xbece4d76	-0.40293473
21	0x3e8525a0	0.26005268
22	0xbe941d14	-0.28928435
23	0x3e353a35	0.17697985
24	0xbc4dce80	-0.0125614405
25	0xbde329d4	-0.110919625
26	0xbe218ca0	-0.157763
27	0x3d27f970	0.041009367
28	0xbd47e2f7	-0.048800435
29	0xbe2205d5	-0.15822537
30	0xbc96dc88	-0.018415704
31	0xbd8c6782	-0.0685568
32	0x3d056af8	0.032572716
33	0x3d9d2b9b	0.07674333
34	0x3ccc88d7	0.024967594
35	0x3f0b227c	0.54349494
36	0xbc9ec5e5	-0.019381473
37	0xbeb2abbc	-0.34896648
38	0x3d4a2ff5	0.04936214
39	0xbea8a350	-0.32937098
40	0x3cd5d0a5	0.026100466
41	0x3ed04183	0.4067498
42	0x3eb980c6	0.3623106
43	0x3ecb8cf5	0.3975598
44	0x3e5b552d	0.2141921
45	0x3d849936	0.06474535
46	0x3e0621d7	0.13098846
47	0x3e5b656b	0.21425407
48	0xbeaaf9c7	-0.3339369
49	0x3e51992e	0.2046859
50	0xbe26ac4d	-0.16276665
51	0xbeae4751	-0.34038785
52	0x3e61bb0d	0.2204401
53	0x3eb3b33b	0.3509768
54	0xbda66aeb	-0.08125862
55	0x3e682d68	0.22673571
56	0x3e908a9a	0.28230745
57	0x3e105825	0.14096124
58	0xbd2899ac	-0.041162178
59	0xbe62a868	-0.22134554
60	0xbe8409fb	-0.25788864
61	0x3d172407	0.036899593
62	0xbdb5786d	-0.0886086
63	0x3e6d34f9	0.23164739
64	0x3d054aa0	0.03254187
65	0xbd148627	-0.03626075
66	0x3ed5ba99	0.41743925
67	0x3cc67ace	0.02422848
68	0xbc2ea329	-0.010659018
69	0xbdf70ad0	-0.12062609
70	0xbed69e52	-0.41917664
71	0x3e8fbecc	0.28075254
72	0x3ec97624	0.39347947
73	0x3dbbaa04	0.09163287
74	0x3ed09c91	0.4074445
75	0xbee1d347	-0.44106504
76	0xbee7995c	-0.4523419
77	0x3e726e93	0.23674993
78	0x3ee2645e	0.442172
79	0x3ea989ac	0.33112848
80	0x3cc8bbac	0.024503551
81	0xbe94a469	-0.29031685
82	0xbcbeb567	-0.023279859
83	0xbe498c9e	-0.19682547
84	0xbd309342	-0.043109186
85	0x3e720f89	0.23638739
86	0x3e234dfc	0.15947717
87	0x3ea2266c	0.3166994
88	0xbcc4ee0e	-0.024039295
89	0x3e3099c0	0.17246151
90	0xbe925d77	-0.28586933
91	0x3ebf25ae	0.37333435
92	0xbe859f9a	-0.2609833
93	0x3cb8a355	0.02253882
94	0xbd443a0d	-0.047906924
95	0x3e9e8049	0.3095725
96	0xbdd45f84	-0.10369781
97	0xbe0bed7b	-0.1366481
98	0x3ebcc5f8	0.36869788
99	0x3e8fc957	0.28083298
100	0x3eee530b	0.46547732
101	0xbe91856f	-0.28422114
102	0xbe660d4a	-0.22466007
103	0x3e6929dd	0.22769876
104	0xbe62deae	-0.22155258
105	0x3e420482	0.18947032
106	0x3da89bef	0.08232867
107	0xbe445023	-0.19171195
108	0x3e90e9b9	0.28303316
109	0xbe887400	-0.26651
110	0xbe11171e	-0.14168975
111	0x3ebaf2ce	0.3651337
112	0x3d6081f0	0.054811418
113	0xbf0fe9fa	-0.56216395
114	0xbeac358b	-0.336346
115	0xbcec626a	-0.028855521
116	0x3e1e25e1	0.15444137
117	0xbe56bd09	-0.20970549
118	0xbd91b1c5	-0.07113985
119	0x3e87ddc2	0.26536375
120	0xbd8a9057	-0.06765812
121	0x3eb624f8	0.3557508
122	0x3b19c11a	0.0023461045
123	0xbb9da7f0	-0.0048112795
124	0xbe9d05c9	-0.30668476
125	0xbe003158	-0.12518823
126	0xbd833107	-0.064058356
127	0xbea4ac8b	-0.3216289
128	0x3e8b9524	0.27262223
129	0x3ddd318d	0.10800467
130	0x3ea3019f	0.31837174
131	0x3ea83ec7	0.32860395
132	0x3eb17ae8	0.34664083
133	0x3e1f99e6	0.15586051
134	0x3f064408	0.5244756
135	0xbd83c5c4	-0.06434205
136	0xbd10b2ae	-0.035326652
137	0xbd06a3e7	-0.032871153
138	0x3e012d2a	0.12614885
139	0x3dafc2b5	0.08582059
140	0x3e78cc53	0.24296694
141	0x3e4b2a37	0.19840322
142	0x3eaf4b29	0.3423703
143	0x3e375227	0.17902432
144	0xbee3a4cb	-0.44461665
145	0xbe2ac245	-0.1667567
146	0xbdbf3c50	-0.093376756
147	0xbe649d17	-0.2232555
148	0xbe7b8ddc	-0.24565834
149	0x3e6039ed	0.21897097
150	0xbc451965	-0.01202998
151	0x3e97cb8d	0.29647484
152	0xbe907cb6	-0.28220147
153	0xbd1bd550	-0.038045228
154	0xbdb80e1b	-0.089870654
155	0x3d0ce9fe	0.03440284
156	0xbe1bdbfe	-0.15220639
157	0x3df1e398	0.11810988
158	0xbe326a4b	-0.1742336
159	0x3f02a81d	0.5103777
160	0x3eac5b60	0.33663464
161	0x3dc5c027	0.09655791
162	0x3ece7728	0.40325284
163	0xbeb26611	-0.34843495
164	0xbf08b19b	-0.53396004
165	0x3d0a3e02	0.03375054
166	0x3e89bdf0	0.26902723
167	0x3c16b351	0.009198026
168	0xbe802955	-0.25031534
169	0x3e4c1c02	0.19932559
170	0xbe98229a	-0.297139
171	0xbe439459	-0.19099559
172	0xbc5c40ad	-0.013443154
173	0x3e827c0a	0.2548526
174	0xbe80428e	-0.25050777
175	0x3cfe982d	0.031078422
176	0x3c745073	0.014911759
177	0x3e7361d5	0.23767789
178	0xbd7c23d0	-0.06155759
179	0xbe6f8e93	-0.23394231
180	0x3eaf7a96	0.34273213
181	0xbe3e7441	-0.18599035
182	0xbe588f38	-0.21148384
183	0xbe9a23d4	-0.3010546
184	0x3e8245dd	0.25443926
185	0xbefe06ad	-0.49614468
186	0xbe7c4b8b	-0.24638192
187	0x3e94c5b7	0.29057094
188	0xbe349a69	-0.17637028
189	0xbdbb3c9a	-0.09142418
190	0xbd286ecf	-0.0411213
191	0x3e30204d	0.17199822
192	0xbda1c1d7	-0.078983
193	0xbef386ad	-0.47563687
194	0xbd8fe2c4	-0.07025674
195	0xbea15267	-0.3150818
196	0xbed619b2	-0.4181648
197	0x3ebf3576	0.37345475
198	0x3d8d7418	0.06906909
199	0xbd2646ff	-0.04059505
200	0x3ea15ad3	0.31514606
201	0x3e5724ec	0.21010178
202	0xbe8deba8	-0.27718854
203	0xbed10e79	-0.40831354
204	0xbe3f0110	-0.18652749
205	0xbe35d610	-0.1775744
206	0x3e923185	0.28553405
207	0x3f078af5	0.52946407
208	0x3cbd7225	0.023125717
209	0x3e98fdbd	0.29881087
210	0xbce979a7	-0.028500391
211	0xbd8e4bef	-0.06948077
212	0x3e56f10b	0.20990388
213	0xbd2c3d4a	-0.042050637
214	0xbe42f130	-0.19037318
215	0xbf139ce6	-0.57661283
216	0xbe0eabb4	-0.13932687
217	0x3dd2302e	0.10263096
218	0x3e9b8e82	0.30382162
219	0x3f2e679f	0.68126863
220	0x3e54b2d3	0.20771341
221	0x3eb0e001	0.345459
222	0x3ec72a19	0.38899305
223	0xbf1aebed	-0.60516244
224	0x3dd6b8f5	0.104844965
225	0xbd2eea1a	-0.042703725
226	0x3dc5d792	0.096602574
227	0x3e9cc246	0.3061697
228	0xbe89bf42	-0.2690373
229	0xbdf30a11	-0.118671544
230	0xbe9a275a	-0.30108148
231	0xbeb831e4	-0.35975564
232	0x3f2e3ac1	0.680584
233	0xbdd7b724	-0.10532978
234	0x3e826fae	0.2547583
235	0x3e553f60	0.20824957
236	0xbe533068	-0.20623934
237	0xbec3a663	-0.3821288
238	0x3e999c6e	0.3000216
239	0x3d32868a	0.043585338
240	0xbee202c9	-0.4414275
241	0xbe5d0d4b	-0.21587102
242	0x3e12ea47	0.14347182
243	0x3ea23abd	0.3168544
244	0xbe6c2f14	-0.23064834
245	0x3ea2bfc0	0.3178692
246	0xbc2af89b	-0.010435249
247	0xbce2cb36	-0.02768479
248	0xbe853302	-0.26015478
249	0xbe3b2572	-0.18276003
250	0x3e4425b0	0.19155002
251	0x3e643533	0.22285919
252	0xbdc65276	-0.09683697
253	0xbd4ab193	-0.049485754
254	0x3df22851	0.11824096
255	0xbdde9f6f	-0.10870253

linear1.bias f4 [256]
0	0x3ebd2c9e	0.36948103
1	0x3dc36177	0.09540074
2	0xbe968e24	-0.2940532
3	0xbe2b6f1c	-0.16741604
4	0xbd44d986	-0.04805901
5	0xbd5da959	-0.05411658
6	0xbb56135c	-0.0032665348
7	0xbde93d9f	-0.113887064
8	0xbd80c527	-0.06287604
9	0xbdb0097d	-0.0859556
10	0xbc594a24	-0.013262305
11	0xbca0b13d	-0.019615764
12	0xbe1544c9	-0.1457702
13	0xbe2ebbd4	-0.17063838
14	0xbe8256dd	-0.25456896
15	0xbe676598	-0.22597349
16	0xbde97886	-0.11399941
17	0x3d9ef992	0.077624455
18	0xbdb29865	-0.08720473
19	0xbdd39120	-0.10330415
20	0xbde3e135	-0.11126939
21	0x3e3c0d2d	0.18364401
22	0xbe6dc71b	-0.23220484
23	0xbccc0566	-0.024904918
24	0x3d8db3a8	0.06919032
25	0x3cf8077d	0.030277008
26	0x3db79144	0.08963254
27	0x3dc7e610	0.09760678
28	0x3dad610d	0.084657766
29	0x3e20b274	0.15693074
30	0x3e75ed01	0.24016191
31	0xbe5bbf47	-0.21459685
32	0x3e8caf53	0.27477512
33	0x3d975813	0.07389846
34	0xbec6e191	-0.3884397
35	0xbe5effce	-0.21777269
36	0x3e8f9494	0.28043044
37	0xbdfd88a2	-0.12379576
38	0x3e1ba099	0.15197982
39	0xbd94e308	-0.07269865
40	0x3e054aee	0.13016865
41	0xbeab7379	-0.33486536
42	0x3e33a92d	0.17545004
43	0xbcac1f9e	-0.02101117
44	0x3dec8026	0.1154788
45	0xbe660506	-0.22462854
46	0x3e65a5e4	0.22426564
47	0xbe441ca0	-0.19151545
48	0x3e8872ba	0.2665003
49	0x3d1323fb	0.035922986
50	0xbe37d761	-0.17953254
51	0xbe1486b3	-0.14504509
52	0x3d4fd791	0.05074269
53	0x3d0cae0f	0.034345683
54	0xbd316489	-0.04330877
55	0x3ca3ed12	0.020010505
56	0xbea5410e	-0.32276195
57	0xbe44085a	-0.19143811
58	0x3d4fc839	0.050728057
59	0x3ec38d4f	0.38193747
60	0xbeb5e930	-0.3552947
61	0x3e234e2b	0.15947787
62	0xbe546cf5	-0.20744689
63	0xbe70be3c	-0.23510069
64	0xbde3a02d	-0.111145355
65	0x3b518be3	0.0031974248
66	0x3e93fd37	0.28904125
67	0x3d78638f	0.06064182
68	0x3c362cd6	0.011119088
69	0xbe557dcb	-0.20848767
70	0x3e30219e	0.17200324
71	0x3d8d984e	0.069138154
72	0xbe5a8c47	-0.21342574
73	0xbe0659f5	-0.13120253
74	0xbe31f9d2	-0.17380455
75	0xbdebe8a0	-0.11518979
76	0xbd0d23f4	-0.034458116
77	0xbe90545c	-0.2818936
78	0xbeb8697f	-0.36017987
79	0xbe03b02e	-0.12860176
80	0x3dbc2d1a	0.0918829
81	0xbe3437e4	-0.17599446
82	0x3cb3568f	0.02189186
83	0x3e786019	0.24255408
84	0xbe0a1469	-0.13484348
85	0xbdb55730	-0.0885452
86	0xbd6d2432	-0.057895847
87	0xbe41eb9c	-0.18937534
88	0xbe7999ea	-0.2437512
89	0x3e80e5bd	0.25175276
90	0x3e2d0816	0.16897616
91	0xbdb85b9f	-0.0900185
92	0x3d2efd3a	0.042721964
93	0xbe7926e5	-0.24331243
94	0xbea5bdc0	-0.3237133
95	0xbdd66d3d	-0.10470054
96	0x3d2234c5	0.039601106
97	0xbda5502b	-0.080719315
98	0x3cbc86ec	0.023013555
99	0xbe3f153b	-0.18660443
100	0x3d266aff	0.040629383
101	0xbe1095a0	-0.14119577
102	0x3d554688	0.052069217
103	0x3d548fe7	0.05189505
104	0xbea7fabd	-0.32808486
105	0x3e48a845	0.1959544
106	0xbe9bfbed	-0.30465642
107	0xbdc6123d	-0.096714474
108	0x3d8daf2d	0.06918178
109	0xbdbdbd32	-0.09264602
110	0xbce4822f	-0.027894108
111	0xbe17bcb9	-0.14818086
112	0x3cb12f33	0.021628952
113	0x3dedec9e	0.11617397
114	0x3ead39af	0.33833072
115	0xbe70b78a	-0.23507515
116	0xbe83a520	-0.25711918
117	0x3d729bdd	0.059230674
118	0xbe268ff5	-0.16265853
119	0x3e6c871e	0.23098418
120	0xbea79c07	-0.32736227
121	0xbd381322	-0.04494012
122	0x3df0d639	0.1175961
123	0xbe967db4	-0.2939278
124	0xbbf38bd7	-0.0074324417
125	0x3e0f9167	0.1402031
126	0x3e5eea93	0.2176917
127	0xbe571345	-0.21003444
128	0xbe61b68f	-0.22042297
129	0xbdceeb84	-0.10103515
130	0x3e633cdd	0.22191186
131	0xbdfed4a7	-0.12442904
132	0xbdd1b749	-0.10240037
133	0xbe5d87e0	-0.21633863
134	0x3ef0a1d8	0.46998477
135	0xbe2ed91c	-0.17075008
136	0xbd0dbff2	-0.03460688
137	0xbe5b5f60	-0.21423101
138	0xbe4449d8	-0.19168794
139	0x3e6922c2	0.22767165
140	0xbcfb93e8	-0.030710176
141	0x3bd27f00	0.006423831
142	0xbe3a466e	-0.1819093
143	0xbe68b65e	-0.22725818
144	0x3e7d9697	0.24764477
145	0xbdcc74bc	-0.09983203
146	0xbddd55f0	-0.10807407
147	0xbd04c308	-0.03241256
148	0x3dab0170	0.083498836
149	0xbd19788c	-0.037468478
150	0xbe246429	-0.16053833
151	0x3e500275	0.20313437
152	0x3e8b4e26	0.2720806
153	0xbe326b70	-0.17423797
154	0xbe11b454	-0.14228946
155	0x3db773b9	0.08957619
156	0x3c49ad2e	0.012309356
157	0x3eb31adf	0.3498144
158	0xbbdfcd40	-0.0068298876
159	0xbd41e310	-0.047335684
160	0x3e395de2	0.1810222
161	0x3e5e6450	0.21717954
162	0xbe3bd99a	-0.18344727
163	0x3d80cff7	0.06289666
164	0x3e719e95	0.2359565
165	0xbe8a60a6	-0.27026862
166	0x3e490899	0.19632186
167	0xbbec0dc8	-0.0072037913
168	0xbd93e67f	-0.07221698
169	0xbe448515	-0.19191392
170	0x3e8cde01	0.27513126
171	0xbe359ed0	-0.17736363
172	0x3e850a31	0.25984338
173	0xbe78bafb	-0.24290077
174	0xbe8d9bcd	-0.2765793
175	0xbddc54da	-0.10758372
176	0x3b4dc913	0.0031400367
177	0xbe72272e	-0.23647758
178	0xbdbde82d	-0.092728
179	0x3c0e5835	0.008688022
180	0x3e76d0ed	0.24103136
181	0xbe902089	-0.28149822
182	0xbdd70410	-0.10498822
183	0x3e538feb	0.20660369
184	0xbebf4db4	-0.3736397
185	0xbd93c6b6	-0.072156355
186	0xbde0762f	-0.10960042
187	0xbe83b65c	-0.25725067
188	0x3e06c1b5	0.13159831
189	0x3e186618	0.14882696
190	0x3c843934	0.016140558
191	0x3e293a96	0.16526255
192	0x3e0dcd5f	0.13847874
193	0xbdb94bee	-0.090476856
194	0x3db63629	0.08897049
195	0x3e885131	0.26624444
196	0xbe89c2fd	-0.26906577
197	0xbd3a1120	-0.045426488
198	0xbbcf132d	-0.0063194246
199	0xbea9f61f	-0.33195588
200	0xbd9dbe9a	-0.0770237
201	0xbcf4b4e7	-0.029871417
202	0xbd8e2ef0	-0.06942546
203	0xbe746aa8	-0.23868811
204	0xbd0597c6	-0.032615446
205	0xbe34de98	-0.17663038
206	0x3e28702a	0.16449037
207	0xbdc49627	-0.09598952
208	0x3e0f9867	0.1402298
209	0xbe6df3ec	-0.2323758
210	0xbe5a7b95	-0.21336205
211	0x3e15686a	0.14590612
212	0x3ed05c1f	0.40695283
213	0xbe2d0c2e	-0.16899177
214	0xbe280be7	-0.1641079
215	0xbe4b8476	-0.19874749
216	0xbe80d6eb	-0.2516397
217	0x3c831107	0.01599933
218	0x3e0c601d	0.1370854
219	0xbe823e36	-0.25438088
220	0xbe1f8449	-0.15577807
221	0xbe8985c2	-0.26859862
222	0xbe53e1c9	-0.20691599
223	0x3e0bd2d5	0.13654645
224	0xbdbcbd9a	-0.09215851
225	0xbe8e2882	-0.2776528
226	0x3d1a0385	0.037601013
227	0x3ebc7fdd	0.36816302
228	0xbe7b31b8	-0.24530685
229	0xbdcca8b1	-0.09993113
230	0xbe02e4c1	-0.12782575
231	0xbe46b5d1	-0.19405295
232	0xbe32e912	-0.17471722
233	0x3dc6a379	0.09699149
234	0x3d997948	0.07493836
235	0xbc4288a0	-0.011873394
236	0x3e4509ca	0.19242015
237	0x3d4844cf	0.048893746
238	0xbe5d51d8	-0.21613252
239	0xbed616ac	-0.41814172
240	0xbe3340a0	-0.17505121
241	0x3df6c3f7	0.12049096
242	0xbea2313d	-0.3167819
243	0xbe5c2d35	-0.2150162
244	0x3e1d767f	0.15377234
245	0xbea7e631	-0.3279281
246	0xbd9245a2	-0.07142188
247	0xbe84188d	-0.2579998
248	0xbe891289	-0.26771954
249	0x3e381602	0.17977145
250	0xbe194934	-0.14969331
251	0x3e8b78ec	0.27240694
252	0xbccd9688	-0.025096193
253	0xbe895852	-0.26825196
254	0xbe1f01d5	-0.15528043
255	0xbdd53aa4	-0.104115754

linear2.weight f4 [3, 256]
0	0x3e01b2d4	0.12665874
1	0x3e9f2f28	0.31090665
2	0x3c927637	0.017878635
3	0xbe6332e1	-0.22187378
4	0xbe431981	-0.19052698
5	0xbc99a069	-0.018753247
6	0xbf10a627	-0.5650353
7	0xbe36ea6e	-0.17862865
8	0x3e61eaba	0.22062197
9	0xbe517039	-0.20452966
10	0x3d08a01b	0.033355813
11	0xbe4ae41e	-0.19813582
12	0xbd9502c1	-0.07275916
13	0xbc4ebf74	-0.012618888
14	0xbeba870e	-0.36431164
15	0x3e122e46	0.14275464
16	0x3eb95db0	0.3620429
17	0xbeff6558	-0.49882007
18	0xbef19b49	-0.47188786
19	0xbf14a2c2	-0.5806085
20	0xbe885177	-0.26624653
21	0x3e93b850	0.28851557
22	0xbe53a30c	-0.20667666
23	0xbdd5af75	-0.104338564
24	0x3e9f4e66	0.311145
25	0x3dfcdcaa	0.12346776
26	0x3ef9bb48	0.48775697
27	0xbed40753	-0.41411838
28	0xbe12386e	-0.14279339
29	0x3ea5d1c3	0.32386598
30	0x3e0c0cac	0.13676709
31	0xbf2c47d5	-0.67297107
32	0x3eb90a08	0.36140466
33	0x3e509f90	0.20373368
34	0xbe0a85e4	-0.13527638
35	0xbdd938c7	-0.106065325
36	0x3dd50935	0.10402147
37	0xbec38a28	-0.38191342
38	0xbe37b0c0	-0.17938519
39	0x3e8f6824	0.2800914
40	0x3d48ae9a	0.048994638
41	0xbf16e47c	-0.5894239
42	0x3ef868ea	0.48517543
43	0x3e8829b9	0.26594332
44	0x3eb0b900	0.34516144
45	0xbe9b26d3	-0.30303058
46	0x3e4776a4	0.19478852
47	0xbe5b36ff	-0.21407698
48	0x3e6ca7aa	0.23110834
49	0xbc45ad39	-0.012065225
50	0xbe9f06e6	-0.3105995
51	0xbe05fefb	-0.13085549
52	0xbdabab62	-0.08382298
53	0x3e34682c	0.17617863
54	0xbf0d3bb9	-0.55169255
55	0xbd012acd	-0.03153496
56	0x3b68e5de	0.0035537402
57	0xbde55bdb	-0.11199161
58	0xbeee1f99	-0.46508482
59	0x3ec05230	0.37562704
60	0xbda94390	-0.0826484
61	0x3e2c383a	0.16818324
62	0xbccc793e	-0.024960157
63	0xbe6298b2	-0.22128561
64	0xbeb61e29	-0.35569885
65	0xbe7eff5f	-0.24902104
66	0x3e82a663	0.25517568
67	0x3ce2c99c	0.027684025
68	0xbdb4bfd8	-0.08825654
69	0xbdc94ac5	-0.09828714
70	0xbc938edc	-0.018012457
71	0x3d4f76ad	0.050650287
72	0xbe856029	-0.26049927
73	0xbe229642	-0.15877631
74	0xbe453800	-0.19259644
75	0xbe61856a	-0.2202355
76	0x3ea4c9dd	0.3218526
77	0xbd85ad15	-0.065271534
78	0x3d3cc06e	0.046081953
79	0xbe0a7ec2	-0.13524917
80	0xbbb134e5	-0.005407917
81	0xbe8e3903	-0.2777787
82	0xbd6ada36	-0.05733701
83	0x3e91bb9e	0.28463453
84	0x3e4d3a0b	0.20041673
85	0xbea40dc6	-0.32041758
86	0x3eaecf0d	0.34142342
87	0xbccefe55	-0.02526776
88	0xbc568170	-0.013092384
89	0x3e03ce53	0.12871675
90	0x3e5587fc	0.20852655
91	0xbc0b49ae	-0.008501453
92	0x3d981bae	0.074271545
93	0xbec7ff69	-0.3906205
94	0xbeab02d0	-0.33400583
95	0xbeec959f	-0.46207902
96	0xbe4ec830	-0.20193553
97	0xbedef2a4	-0.43544495
98	0x3cc897dd	0.024486477
99	0xbebb40b2	-0.36572796
100	0x3e09b17c	0.13446611
101	0x3cebfa56	0.028805893
102	0x3d51533c	0.05110477
103	0x3bed5613	0.007242927
104	0x3bf859d7	0.007579069
105	0x3e10b8d6	0.1413301
106	0xbbfccd55	-0.007714907
107	0xbde93453	-0.11386933
108	0xbdb92211	-0.09039701
109	0xbe12f394	-0.1435073
110	0xbdad7882	-0.08470251
111	0xbf1efcb2	-0.6210433
112	0x3e1a2009	0.15051283
113	0x3e95335b	0.29140744
114	0x3eb11c15	0.34591737
115	0xbedd9040	-0.43274117
116	0xbd31b039	-0.04338095
117	0x3ebf9114	0.37415373
118	0xbf0546e7	-0.52061313
119	0x3dc37ec4	0.09545663
120	0x3d650127	0.055909302
121	0xbb360eae	-0.0027779746
122	0xbdd0fff7	-0.102050714
123	0x3d6b7fee	0.05749505
124	0xbe80b2e0	-0.2513647
125	0xbec534fb	-0.38516983
126	0x3e21e2f5	0.15809233
127	0xbe293569	-0.1652428
128	0x3c2318a0	0.0099546015
129	0xbbc1e42d	-0.0059170933
130	0x3df1402c	0.11779818
131	0xbe492469	-0.19642796
132	0xbe286f45	-0.16448696
133	0xbec754e9	-0.3893197
134	0x3e80f358	0.25185657
135	0xbc49036a	-0.01226888
136	0xbdfa1857	-0.12211674
137	0xbeda0d3d	-0.42588225
138	0xbdd357e4	-0.10319498
139	0x3e9a59dd	0.30146685
140	0xbe84a4a7	-0.2590687
141	0xbc7c3de8	-0.015395619
142	0xbe84f3c3	-0.25967225
143	0xbdeb4d13	-0.1148931
144	0x3ef9a6c9	0.4876006
145	0x3e644017	0.22290073
146	0xbd9a3405	-0.07529453
147	0x3eca358d	0.3949398
148	0x3e858a87	0.2608225
149	0xbea01450	-0.31265497
150	0x3e7f1306	0.249096
151	0x3e088b4f	0.13334392
152	0x3eff1bc9	0.49825886
153	0xbe9f546f	-0.31119105
154	0xbe4697f1	-0.19393899
155	0xbdac180c	-0.08403024
156	0x3d3a45a0	0.045476556
157	0x3ebd1df6	0.3693692
158	0x3d220c61	0.039562587
159	0x3e82dfc9	0.2556136
160	0x3e24f84c	0.16110343
161	0x3e151d45	0.14561947
162	0xbcc39770	-0.023875922
163	0x3d0b0539	0.033940528
164	0x3da59821	0.08085657
165	0xbe03758e	-0.12837812
166	0x3d8a9d31	0.06768263
167	0xbdef386f	-0.11680686
168	0x3af0731a	0.001834485
169	0xbf077765	-0.52916557
170	0x3dd407da	0.1035306
171	0x3d38df33	0.045134734
172	0x3dad5798	0.08463973
173	0xbdd90781	-0.105971344
174	0xbea5b25c	-0.3236264
175	0xbdd25ad4	-0.1027123
176	0xbe1c599a	-0.15268555
177	0xbe3f25f7	-0.18666826
178	0xbe172d0e	-0.14763281
179	0x3e793d4d	0.2433979
180	0x3ca3e739	0.020007716
181	0xbdf29dfb	-0.11846539
182	0xbe181f4d	-0.1485569
183	0xbea8830a	-0.32912475
184	0xbebe5eb0	-0.37181616
185	0xbe9eba99	-0.31001738
186	0x3e40db9c	0.18833774
187	0x3c852be8	0.016256288
188	0x3ed5b128	0.41736722
189	0x3ea92216	0.33033818
190	0x3e8a3e0f	0.27000472
191	0x3e6a0836	0.22854695
192	0x3ed86483	0.42264184
193	0xbe77aa30	-0.24186015
194	0x3b209373	0.002450195
195	0x3f10acd6	0.56513727
196	0x3e90ffd1	0.28320172
197	0x3d8d3857	0.068955116
198	0xbedc5c51	-0.43039182
199	0xbc11a2d5	-0.00888892
200	0xbf0c526a	-0.54813254
201	0x3bcbd9f3	0.00622105
202	0xbe3393d0	-0.17536855
203	0xbe8dd9d0	-0.2770524
204	0x3d4646d4	0.04840739
205	0x3ebebdda	0.3725422
206	0x3ea25bb1	0.3171058
207	0xbe84815d	-0.25879946
208	0xbea05181	-0.31312183
209	0xbe9b66e3	-0.30351934
210	0xbd9c1a47	-0.076221995
211	0xbe917f16	-0.2841727
212	0x3e8281d4	0.25489676
213	0xbe10f3ed	-0.1415555
214	0xbeacee07	-0.3377535
215	0xbe91d7ab	-0.28484854
216	0xba94869b	-0.001133162
217	0xbe9754db	-0.29556927
218	0xbe7b3751	-0.2453282
219	0x3ce8b4d0	0.02840653
220	0xbe50ab79	-0.20377912
221	0x3adb529d	0.0016732995
222	0xbc57691a	-0.013147617
223	0x3e14c671	0.14528824
224	0xbe9c0bf8	-0.3047788
225	0xbdaaa2b9	-0.08331818
226	0x3dad39f4	0.08458319
227	0x3e3df2e6	0.1854969
228	0xbeba5afd	-0.36397544
229	0xbe4f7137	-0.20258032
230	0x3e6b723f	0.229928
231	0xbd008bf5	-0.031383473
232	0xbf18e9b0	-0.5973158
233	0x3ae6d49c	0.001761097
234	0x3eac7184	0.33680356
235	0x3ec499a5	0.3839847
236	0x3ec4b29c	0.38417518
237	0x3e6a736b	0.22895591
238	0xbe388273	-0.18018512
239	0xbdb97b4a	-0.09056719
240	0xbd617553	-0.05504353
241	0xbec5358f	-0.38517424
242	0x3c293f03	0.010329965
243	0xbea5f3b9	-0.32412508
244	0xbdcaa9fb	-0.098957025
245	0xbed9a45c	-0.4250821
246	0x3d080d45	0.03321578
247	0x3d20db87	0.039271858
248	0xbeb05a37	-0.34443828
249	0x3e1d9dd1	0.15392233
250	0xbb9ed0e7	-0.0048466804
251	0x3e70f7d5	0.2353204
252	0xbd969c9d	-0.0735409
253	0xbda08735	-0.07838289
254	0xbed0e3b3	-0.4079872
255	0xbe093713	-0.13399915

linear2.bias f4 [3]
0	0x3e4842d4	0.19556743
1	0x3d2561a8	0.040376335
2	0x3c3114cc	0.010808181
